Assignment 2/python-code-assignment/model.ckpt (torch_old, 635676 bytes, 12 tensors)

layers.0.weight f4 [50, 3072]
0	0x0ca9db1a	2.617044e-31
1	0x8c0e700e	-1.0973002e-31
2	0x93055c6b	-1.6832526e-27
3	0x0a4daf74	9.90339e-33
4	0x0b2947d7	3.2602262e-32
5	0x0b00f176	2.4833558e-32
6	0x0c81bc75	1.998902e-31
7	0x8c6cd445	-1.8244656e-31
8	0x0bb1179e	6.8213455e-32
9	0x8ceae6cd	-3.6192317e-31
10	0x8c23f2a7	-1.2630084e-31
11	0x8bab540c	-6.5993264e-32
12	0x8aa41f14	-1.5804316e-32
13	0x89e4bc90	-5.5066327e-33
14	0x8c3ae100	-1.4396627e-31
15	0xad38ecb0	-1.0511744e-11
16	0x8ba8ef28	-6.507109e-32
17	0x09a97aa0	4.0800586e-33
18	0x8b6f8fb4	-4.6137836e-32
19	0x8b8ad268	-5.347225e-32
20	0x0c5c96e0	1.6993586e-31
21	0x8c13bed0	-1.1381889e-31
22	0x0bb0bea0	6.8079555e-32
23	0x1b06560f	1.1112027e-22
24	0x0b6b8110	4.535645e-32
25	0x0c786ec8	1.9138562e-31
26	0x8c300426	-1.3559795e-31
27	0x0c1c2ced	1.2031322e-31
28	0x8bc003e6	-7.3961576e-32
29	0x24b3cf22	7.797977e-17
30	0x0b83a6c5	5.071029e-32
31	0x8b34bce4	-3.4808845e-32
32	0x8c103800	-1.1110208e-31
33	0x8cbb71b7	-2.8880352e-31
34	0x8ca9443c	-2.607964e-31
35	0x895bd3a0	-2.6460672e-33
36	0x0bb97584	7.1436226e-32
37	0x8b8ae0fc	-5.3494185e-32
38	0x8b20ade2	-3.0945694e-32
39	0x1c02c0c6	4.3262546e-22
40	0x0bbca502	7.266324e-32
41	0x8c90ad9a	-2.2291196e-31
42	0x8ca2eaf5	-2.5101462e-31
43	0x0b8aaeef	5.341888e-32
44	0x0c3bdad4	1.4471807e-31
45	0x882e9200	-5.2532843e-34
46	0x8c436cbe	-1.5054977e-31
47	0x0bc01c40	7.3998216e-32
48	0x8b3de80e	-3.6574654e-32
49	0x8b9105f4	-5.5860926e-32
50	0x8ba825e0	-6.4768234e-32
51	0x0b541ae7	4.0849954e-32
52	0x0b6f6561	4.6105995e-32
53	0x1cbf7255	1.2668874e-21
54	0x8bfb2a93	-9.674574e-32
55	0x0a8bce7c	1.3462884e-32
56	0x92169250	-4.7512e-28
57	0x0b143fd4	2.8551782e-32
58	0x8bf0c266	-9.2737136e-32
59	0x8c0cf03c	-1.0857501e-31
60	0x0c1964be	1.1817007e-31
61	0xaf1fa5ef	-1.4519917e-10
62	0x8aa328fc	-1.5711746e-32
63	0x0ab785b0	1.7672547e-32
64	0x8c110f9f	-1.1175094e-31
65	0xada90364	-1.9214581e-11
66	0x116e9a68	1.882247e-28
67	0x8ca79868	-2.582215e-31
68	0x0afbead8	2.4258759e-32
69	0x0b3a5b6c	3.5891075e-32
70	0x8b532bb8	-4.0670012e-32
71	0x0b2a3768	3.2782492e-32
72	0x8bb9c9ac	-7.156285e-32
73	0x8b0568e0	-2.5693767e-32
74	0x0c175ad4	1.165995e-31
75	0x8bb09f18	-6.803211e-32
76	0x0b538ab0	4.074146e-32
77	0x0bedb94c	9.1567883e-32
78	0x0b6b1916	4.5278226e-32
79	0x8a3d4060	-9.1121266e-33
80	0x8a7bee00	-1.2129973e-32
81	0x8b4e3cc2	-3.9719866e-32
82	0x8ba25b4c	-6.25375e-32
83	0x0bcf4e3e	7.9851225e-32
84	0xac98120b	-4.322103e-12
85	0x8b160507	-2.889273e-32
86	0x8b870f5a	-5.2023207e-32
87	0x0b0fe4c9	2.7712917e-32
88	0x8b3cd22a	-3.6365593e-32
89	0x8b5a1f22	-4.2008695e-32
90	0x8b616336	-4.3408062e-32
91	0x8ac1d9a4	-1.8667091e-32
92	0x0c2b76b0	1.3209077e-31
93	0x8c9eb72f	-2.4454004e-31
94	0x8be8d928	-8.968989e-32
95	0x0b1844ac	2.9325798e-32
96	0x8ce193f8	-3.4755794e-31
97	0x8ca40b81	-2.5275125e-31
98	0xa586c932	-2.338163e-16
99	0x34414c22	1.8002223e-07
100	0x0b2b3042	3.2969707e-32
101	0x128eee4a	9.020203e-28
102	0x0a41559a	9.308712e-33
103	0x0b48ead7	3.8695273e-32
104	0xab1691f6	-5.3493267e-13
105	0x8b903c17	-5.5557196e-32
106	0x0ce96e7f	3.5965837e-31
107	0x8bae9cec	-6.725847e-32
108	0x9c0dfbda	-4.6978497e-22
109	0x8b623cc0	-4.357172e-32
110	0x0ba14e4e	6.2132764e-32
111	0x8a914942	-1.3990549e-32
112	0x8bcba1d0	-7.8436224e-32
113	0x0b2a26ff	3.2770146e-32
114	0x8bad3ffd	-6.6733455e-32
115	0x0b3fb59a	3.6921884e-32
116	0x0c73b282	1.8773757e-31
117	0x208fb5f4	2.434555e-19
118	0x0b4202b7	3.7365083e-32
119	0x8ba64a32	-6.405251e-32
120	0x1665b278	1.8554787e-25
121	0x8c44a622	-1.5149285e-31
122	0x8c9ec1b4	-2.4460335e-31
123	0x219115d6	9.831362e-19
124	0x0b6b9606	4.537222e-32
125	0xb692dd64	-4.3769123e-06
126	0x3471ef64	2.2531964e-07
127	0x8aec123c	-2.2732832e-32
128	0xa56d4572	-2.0580002e-16
129	0x8b676019	-4.4561278e-32
130	0x8bb2b0b9	-6.882901e-32
131	0x0b16fdbe	2.9079844e-32
132	0x8bbd1b4e	-7.2841235e-32
133	0x8accc0fa	-1.9717075e-32
134	0x8b4b6ab8	-3.9176664e-32
135	0x8ae39260	-2.1914365e-32
136	0x8b1508fc	-2.8703115e-32
137	0x0c0b2826	1.0720252e-31
138	0x8c00923a	-9.904765e-32
139	0x8ba55d5e	-6.369617e-32
140	0x1c3224c6	5.894279e-22
141	0x1b0835b1	1.1267005e-22
142	0x8adb3e54	-2.1112378e-32
143	0x8a876470	-1.3037808e-32
144	0x0ba870f2	6.488119e-32
145	0x8b55d51a	-4.1182628e-32
146	0x0b5bc821	4.2328426e-32
147	0x8a962b2c	-1.4460714e-32
148	0x0b680f78	4.4693212e-32
149	0x8bc67b8a	-7.6452707e-32
150	0x97a40164	-1.0598603e-24
151	0x13949fb7	3.7517943e-27
152	0x8cb67aa3	-2.811535e-31
153	0x8c3a8950	-1.437024e-31
154	0x8b4a5eba	-3.897505e-32
155	0x0babffb3	6.625154e-32
156	0x0b33accc	3.4604144e-32
157	0x8bf23b13	-9.3303894e-32
158	0x2cf9307c	7.0823885e-12
159	0x0c6873fe	1.7907535e-31
160	0x0c3f0d20	1.4718054e-31
161	0xa299c6f4	-4.1681383e-18
162	0x8a38ed30	-8.903888e-33
163	0x97165266	-4.8571615e-25
164	0x8a6ddb2c	-1.14523566e-32
165	0x0ad98908	2.0947885e-32
166	0x8dc823a9	-1.23345365e-30
167	0x8c501db2	-1.6032673e-31
168	0x8c827a0e	-2.010313e-31
169	0x8badf9ce	-6.701304e-32
170	0x8c0acb57	-1.0692324e-31
171	0x0aaa89b4	1.6422203e-32
172	0x0a63dcb0	1.0971159e-32
173	0x88cd5920	-1.2358942e-33
174	0x1239e779	5.866102e-28
175	0x0bf1faaa	9.320698e-32
176	0x0bf71394	9.51704e-32
177	0x8bcc72c8	-7.8750645e-32
178	0x0b098e40	2.6492257e-32
179	0x0ae104a4	2.1668457e-32
180	0x8b0f48e4	-2.7595635e-32
181	0x8b5ba47d	-4.2301613e-32
182	0x8c0458a8	-1.0195589e-31
183	0x0a8d9cc4	1.3636775e-32
184	0x980acaf5	-1.793855e-24
185	0x0bd30707	8.128482e-32
186	0x8c10ae34	-1.1145779e-31
187	0x0bd95519	8.37134e-32
188	0x0b169b50	2.9005793e-32
189	0x8f9ffef7	-1.577682e-29
190	0x8b542714	-4.0859114e-32
191	0x0ade6e98	2.1419423e-32
192	0x0c9c6637	2.4097124e-31
193	0x2b6e4b27	8.465888e-13
194	0x19988d3a	1.5773473e-23
195	0x0aa69fcb	1.6045326e-32
196	0x08cd9a30	1.2374238e-33
197	0x8abd991f	-1.8257636e-32
198	0x0ae48a02	2.2007514e-32
199	0x8900dcac	-1.5511199e-33
200	0x8ba8fbd3	-6.509015e-32
201	0x0c250986	1.2714003e-31
202	0x8b36b1bd	-3.518564e-32
203	0x8a7f8852	-1.23034424e-32
204	0x0b261174	3.1983567e-32
205	0x8879d080	-7.5175802e-34
206	0x8b1ddf16	-3.040493e-32
207	0x8aae80c1	-1.6804022e-32
208	0xa429a868	-3.678868e-17
209	0x8bc3437b	-7.52128e-32
210	0x0ba42b8c	6.3236024e-32
211	0x0ae466b4	2.1994234e-32
212	0xa179cb56	-8.4633594e-19
213	0x0b036c48	2.5311144e-32
214	0x0bb9d126	7.15741e-32
215	0x8d351a18	-5.580634e-31
216	0x8c5ebb80	-1.7158682e-31
217	0x8be7a9f9	-8.923371e-32
218	0x8c00c69f	-9.920532e-32
219	0x8c951e9f	-2.2975514e-31
220	0x8c156aa0	-1.1510629e-31
221	0x0c091b5a	1.0562327e-31
222	0x0c276d1d	1.2898047e-31
223	0x8b640f8e	-4.3922905e-32
224	0x8c827fcb	-2.0106584e-31
225	0x8b56c976	-4.1366463e-32
226	0x0c3c6bc0	1.4515418e-31
227	0x11a2bee8	2.5676748e-28
228	0x8adbedd0	-2.1178388e-32
229	0x89e30e08	-5.4661457e-33
230	0x8bbcab79	-7.267297e-32
231	0x0c4cdb92	1.5781663e-31
232	0xa0b5839a	-3.074968e-19
233	0x0b431322	3.7570028e-32
234	0x0ad3824b	2.0367572e-32
235	0x0ae95ec2	2.2472728e-32
236	0x0b209278	3.092507e-32
237	0x89f6dd78	-5.9430614e-33
238	0x0a1315c6	7.081888e-33
239	0x8cef6848	-3.6886543e-31
240	0x8a9a31ee	-1.4848442e-32
241	0x2de976dc	2.6541817e-11
242	0x0ba01feb	6.1677783e-32
243	0x379613c7	1.7890603e-05
244	0x2f363902	1.6573057e-10
245	0x8b5d3520	-4.260302e-32
246	0x8b121930	-2.8137526e-32
247	0x0b5914c0	4.180829e-32
248	0x0bb4373f	6.9416603e-32
249	0x8b50ce46	-4.0214526e-32
250	0x8b9d184d	-6.0510764e-32
251	0x8b9a8104	-5.9512763e-32
252	0x9b7f5ff8	-2.1124115e-22
253	0x8bfd2f53	-9.752326e-32
254	0x0c9fb7af	2.460838e-31
255	0x227d5bb0	3.4336433e-18

layers.0.bias f4 [50]
0	0xa350c1ce	-1.1316742e-17
1	0xa9be3026	-8.4460474e-14
2	0x919f7750	-2.5159309e-28
3	0x962dc2fe	-1.4036357e-25
4	0x1219879c	4.844544e-28
5	0x91620b18	-1.7831675e-28
6	0x91edbaed	-3.750721e-28
7	0x10b881b0	7.277502e-29
8	0x10e7399c	9.1202196e-29
9	0x22ceaf5f	5.6022093e-18
10	0xb6a28b1a	-4.84417e-06
11	0xae43c5fc	-4.4513712e-11
12	0x92c11722	-1.2185715e-27
13	0x9c1451d6	-4.9074863e-22
14	0x258fe255	2.4959914e-16
15	0x11f12ecc	3.8051936e-28
16	0x15f0e2f8	9.729332e-26
17	0xb4a78d84	-3.120914e-07
18	0x90b4e27a	-7.1346424e-29
19	0x242ebc20	3.7889584e-17
20	0x120c894d	4.4345447e-28
21	0x93edadca	-5.999858e-27
22	0x927c06fe	-7.95258e-28
23	0xaad0be2f	-3.7080189e-13
24	0x928d0476	-8.899451e-28
25	0x9e419f8a	-1.0250327e-20
26	0x9271f713	-7.6350734e-28
27	0xa1360fa8	-6.168472e-19
28	0x111cc4e0	1.2366897e-28
29	0x12d4e67a	1.3435898e-27
30	0x2c1c41e2	2.2205506e-12
31	0x1a933225	6.087879e-23
32	0x11e41118	3.5982592e-28
33	0x2f21d513	1.4718564e-10
34	0x20592434	1.8392594e-19
35	0x24905246	6.258942e-17
36	0x12e276f0	1.4291926e-27
37	0xb31eb15b	-3.6948546e-08
38	0x97def300	-1.4407756e-24
39	0x9920861d	-8.29889e-24
40	0xa0dec2ce	-3.7737174e-19
41	0xb19d607c	-4.5802704e-09
42	0x24802a14	5.5582434e-17
43	0x91a223d4	-2.5581174e-28
44	0x9b1034c1	-1.1928447e-22
45	0xaa931607	-2.612773e-13
46	0x2f4084d4	1.7509488e-10
47	0x9eb85ba0	-1.9519653e-20
48	0x90f365e6	-9.60036e-29
49	0x914a3798	-1.5952121e-28

layers.2.weight f4 [40, 50]
0	0x2debd2b4	2.6809978e-11
1	0x12105e6e	4.555478e-28
2	0x115acc64	1.726015e-28
3	0x10ee2760	9.3935115e-29
4	0x91d4c570	-3.3569383e-28
5	0x16c1115b	3.1191785e-25
6	0x13828f7a	3.2958092e-27
7	0x2195a1af	1.013943e-18
8	0x1c6ead30	7.8971434e-22
9	0x928908ca	-8.648082e-28
10	0x91f9e1e8	-3.9424499e-28
11	0x1249e0a2	6.37013e-28
12	0x11debaef	3.514063e-28
13	0x2993f65d	6.5708486e-14
14	0x91d8ea8c	-3.4223342e-28
15	0x90bd7928	-7.4734026e-29
16	0x1313feeb	1.8679693e-27
17	0x9371c739	-3.05167e-27
18	0x130aac6e	1.7503063e-27
19	0x123fb0a4	6.04867e-28
20	0x93058902	-1.685451e-27
21	0x938927bc	-3.4622843e-27
22	0x12829a47	8.242186e-28
23	0x92dd6c34	-1.3973735e-27
24	0x2381ca9e	1.407202e-17
25	0x91704810	-1.8954868e-28
26	0x1a388b99	3.8163074e-23
27	0x9b6973e4	-1.9310755e-22
28	0x10fa462e	9.871574e-29
29	0x91b5c050	-2.8675286e-28
30	0x92bff3dc	-1.2113911e-27
31	0x107e2f80	5.012926e-29
32	0x12c46b29	1.2395756e-27
33	0x94255b64	-8.348395e-27
34	0x12569986	6.7715726e-28
35	0x9295431a	-9.419764e-28
36	0x923125e7	-5.589807e-28
37	0x924fe439	-6.559899e-28
38	0x252cd45a	1.499057e-16
39	0x928bc26c	-8.820062e-28
40	0x1275e9c0	7.759649e-28
41	0x13bd4cc0	4.778599e-27
42	0x134a58ac	2.5539703e-27
43	0x13cfef7a	5.249029e-27
44	0x917210b0	-1.9095576e-28
45	0x90a21304	-6.392703e-29
46	0x922c1446	-5.429862e-28
47	0x127db41a	8.0054716e-28
48	0x9b043b70	-1.093799e-22
49	0x110259b7	1.0282837e-28
50	0xa5b8f069	-3.208182e-16
51	0x0db9e03e	1.145549e-30
52	0x0dbc4e70	1.1605278e-30
53	0x0dea80f3	1.4452407e-30
54	0x0d8143ec	7.96659e-31
55	0x8e4b836c	-2.508496e-30
56	0x8db66809	-1.1241662e-30
57	0x228292a0	3.5391816e-18
58	0x8e1de8f8	-1.9463914e-30
59	0xb4cb30e0	-3.7847258e-07
60	0xb504818b	-4.936234e-07
61	0x0bf339f0	9.368737e-32
62	0x0e330b54	2.2068908e-30
63	0xa4406d34	-4.1725862e-17
64	0x0ea0c07c	3.96284e-30
65	0x8e0829b0	-1.6783366e-30
66	0x0d01d00b	4.0001617e-31
67	0x8ca8e750	-2.6023715e-31
68	0x8dbd0870	-1.1650056e-30
69	0xb88da235	-6.753617e-05
70	0x8b0d69d0	-2.7235217e-32
71	0x8b3b7980	-3.6106296e-32
72	0x0f0cd3c3	6.943317e-30
73	0x0e28c6ce	2.080332e-30
74	0x0e17f1cb	1.8728606e-30
75	0x8deadee2	-1.44750205e-30
76	0x32bda702	2.2078442e-08
77	0x0d83eebd	8.1309725e-31
78	0x0e5719aa	2.6513153e-30
79	0x0de6a02d	1.4213405e-30
80	0x8eb8ca66	-4.5554405e-30
81	0x99c136d5	-1.9977879e-23
82	0x8e422428	-2.3929755e-30
83	0x0b9b7d80	5.989266e-32
84	0x0ddcfeff	1.3619935e-30
85	0x8f1679a9	-7.419002e-30
86	0x8e21b9d7	-1.993426e-30
87	0x0a9e59e0	1.5248654e-32
88	0x8e2edf94	-2.1554805e-30
89	0x8bce3ae8	-7.9436946e-32
90	0x8c7ee814	-1.9637287e-31
91	0x0c8399ac	2.0276234e-31
92	0x8dd390ef	-1.30387705e-30
93	0x8965c500	-2.7657501e-33
94	0x8d3525f0	-5.5820597e-31
95	0x0d37363e	5.645652e-31
96	0x12244e62	5.184589e-28
97	0x8ca9dd70	-2.6171846e-31
98	0x0e7e57f6	3.1350269e-30
99	0x0dc560a4	1.2164328e-30
100	0x0d7bcbb2	7.7590536e-31
101	0x88f32400	-1.4633494e-33
102	0xa48c9332	-6.096468e-17
103	0x0c090b5a	1.0557512e-31
104	0x8e789964	-3.0642215e-30
105	0x8e184a68	-1.8771272e-30
106	0x8d566310	-6.6063083e-31
107	0x0c741f40	1.880648e-31
108	0x0c205dd8	1.2354192e-31
109	0x8c75dfd8	-1.8941474e-31
110	0x0d114f80	4.477727e-31
111	0x8d3f56a0	-5.896069e-31
112	0x8d903b5e	-8.888977e-31
113	0x8d0782cd	-4.1757533e-31
114	0x0d52c7e8	6.4951875e-31
115	0x0c714e84	1.8589592e-31
116	0x8c064f88	-1.0346918e-31
117	0xa1a31a1c	-1.1052221e-18
118	0x8d5cfabe	-6.8094554e-31
119	0x0dd455c6	1.3086158e-30
120	0x8d4ec73e	-6.371848e-31
121	0x0d82857d	8.044005e-31
122	0x0c3be71e	1.4475505e-31
123	0x0caf5e41	2.7019746e-31
124	0xb636a168	-2.7214064e-06
125	0x8c46f990	-1.5328465e-31
126	0x0b5c7204	4.2456235e-32
127	0x0c8e7f77	2.195528e-31
128	0x0af757d6	2.3818275e-32
129	0x8d6f3444	-7.3710474e-31
130	0x0dadf26e	1.0720311e-30
131	0x2dcbfac8	2.3189797e-11
132	0x8c44cc0b	-1.5160693e-31
133	0x8d3928e9	-5.705677e-31
134	0x9e369c51	-9.667325e-21
135	0x8cebd6fa	-3.6336867e-31
136	0x0cbb003f	2.881206e-31
137	0x8d0ba644	-4.3032817e-31
138	0x0d914b7c	8.954487e-31
139	0x0d5a4866	6.7263583e-31
140	0x0d3b31e7	5.768389e-31
141	0x1c562542	7.0854815e-22
142	0x0c92f04a	2.263948e-31
143	0x8ce7cde1	-3.5715094e-31
144	0x8d1a289e	-4.7503805e-31
145	0x0cdcea82	3.4037506e-31
146	0x0da813a1	1.0358525e-30
147	0x8cc864a0	-3.087544e-31
148	0x0dfa0992	1.54097435e-30
149	0x932f83ff	-2.2153184e-27
150	0x1215d6b2	4.728074e-28
151	0x105c07fc	4.33935e-29
152	0x91de0c59	-3.5033034e-28
153	0x2107ecc0	4.6053115e-19
154	0x8fa5a075	-1.6332062e-29
155	0x11c09e66	3.038988e-28
156	0x10e6ca6c	9.1030884e-29
157	0x9101fca4	-1.0254157e-28
158	0x107cd1e0	4.985992e-29
159	0x90a0f1a4	-6.348118e-29
160	0x10c1c438	7.64274e-29
161	0x917cc229	-1.9939125e-28
162	0x92954e6c	-9.422554e-28
163	0x115cca92	1.7417362e-28
164	0x91f41650	-3.8510163e-28
165	0x10bb660a	7.391571e-29
166	0x90741cd4	-4.8142724e-29
167	0x8f811dc0	-1.2731841e-29
168	0x1108856e	1.0769625e-28
169	0x90a1d85e	-6.383667e-29
170	0x910849e9	-1.0751284e-28
171	0x130436e0	1.6687798e-27
172	0x1141400c	1.5244751e-28
173	0x1017e919	2.995907e-29
174	0x1037e456	3.626629e-29
175	0x11926c0e	2.3101332e-28
176	0x90f38df3	-9.606531e-29
177	0x90c422cc	-7.736198e-29
178	0x91056c50	-1.0525226e-28
179	0x90cbeab0	-8.0430975e-29
180	0x91345fcc	-1.4229016e-28
181	0x90141ab7	-2.9208434e-29
182	0x8fab14a4	-1.6869852e-29
183	0x1240a493	6.078737e-28
184	0x8edd1c30	-5.450785e-30
185	0x919e1c8c	-2.4945598e-28
186	0x1155ba16	1.686008e-28
187	0x1135495a	1.4300986e-28
188	0x10b8c3dc	7.287697e-29
189	0x914c117c	-1.609815e-28
190	0x91b032be	-2.7799176e-28
191	0x0fbaa807	1.8405738e-29
192	0x90818300	-5.1083366e-29
193	0x0ff55ac0	2.4193821e-29
194	0x11af88ae	2.7694367e-28
195	0x3405ee24	1.2473225e-07
196	0x9112d8aa	-1.1584134e-28
197	0x11b2471a	2.8127268e-28
198	0x1692e888	2.373432e-25
199	0x107b77b8	4.959325e-29
200	0x9032476a	-3.5159326e-29
201	0x909f2d46	-6.2784197e-29
202	0x1b4b8510	1.6834761e-22
203	0xad65a0e6	-1.30528695e-11
204	0x912af633	-1.3486501e-28
205	0x10b49140	7.1221275e-29
206	0x9284c27d	-8.378316e-28
207	0x929a4f06	-9.738247e-28
208	0x9105a909	-1.0543938e-28
209	0x90c9979c	-7.951411e-29
210	0x908301a3	-5.167291e-29
211	0x10b75362	7.2309244e-29
212	0x10bb91dd	7.398323e-29
213	0x913c01d6	-1.4831151e-28
214	0x0f283be4	8.294574e-30
215	0x11515c75	1.6515683e-28
216	0x8f7e9eac	-1.2553726e-29
217	0x9097e8ee	-5.9917883e-29
218	0x90db6d6a	-8.654885e-29
219	0x0fe763b8	2.2816769e-29
220	0x91b55030	-2.8606184e-28
221	0x90d6d55c	-8.473685e-29
222	0xb849ff19	-4.8159713e-05
223	0x90953dfd	-5.8865646e-29
224	0x8fbc21c0	-1.8551231e-29
225	0x109b56a9	6.127024e-29
226	0x90ad9898	-6.8471576e-29
227	0x1155ed12	1.687579e-28
228	0x2a933454	2.6148755e-13
229	0x1042abd9	3.839214e-29
230	0x9052afc4	-4.1550602e-29
231	0x10bf24ba	7.53928e-29
232	0x8f8c8550	-1.3856416e-29
233	0x1100d7aa	1.0163876e-28
234	0xb71a843c	-9.2099035e-06
235	0x1204fba0	4.1962008e-28
236	0x11bdd65c	2.9951051e-28
237	0x8ff8e8c0	-2.454434e-29
238	0x91454b6c	-1.5563801e-28
239	0x24a545ff	7.167592e-17
240	0x2e572022	4.891388e-11
241	0x1160f060	1.7744556e-28
242	0x90bacc7c	-7.367912e-29
243	0xa4cc30f6	-8.855384e-17
244	0xb7b39316	-2.1406955e-05
245	0x905b4a63	-4.324744e-29
246	0x0e968db8	3.7114325e-30
247	0x9274f347	-7.7292687e-28
248	0x0fdde91c	2.1882073e-29
249	0x9084a258	-5.231495e-29
250	0x0dc342b0	1.2033857e-30
251	0x8f6a538b	-1.15531805e-29
252	0x3811cb48	3.4760014e-05
253	0x2149c980	6.836813e-19
254	0x8f333144	-8.8348696e-30
255	0x0fc7fe9c	1.9720987e-29

layers.2.bias f4 [40]
0	0x1abbedc4	7.772552e-23
1	0xab8fbbbf	-1.0212871e-12
2	0xa4d7a552	-9.352145e-17
3	0x1a098653	2.8439442e-23
4	0x9ff54f78	-1.03893006e-19
5	0xa99bb0e2	-6.914067e-14
6	0xa3320446	-9.650304e-18
7	0xa2331660	-2.4270869e-18
8	0x2ad89020	3.8469315e-13
9	0x9a08ba36	-2.827456e-23
10	0x9a945f9e	-6.1365843e-23
11	0x8ee29dfc	-5.5865435e-30
12	0xa6dbb634	-1.5245564e-15
13	0x9c816017	-8.561343e-22
14	0x2b05f07c	4.758483e-13
15	0xa3cad8cc	-2.1992701e-17
16	0xa31d6128	-8.531561e-18
17	0x9e7ef9d8	-1.34983145e-20
18	0x196a1068	1.210083e-23
19	0x9bda6e52	-3.6136368e-22
20	0xa4ddcf18	-9.61943e-17
21	0x1efa2112	2.6483457e-20
22	0xb82c040e	-4.1011772e-05
23	0x0e84b84a	3.2717976e-30
24	0x1d028c14	1.7277775e-21
25	0x18fd140d	6.5419213e-24
26	0xb78e45c0	-1.6960199e-05
27	0x2cec3480	6.713352e-12
28	0xa5226c71	-1.4088002e-16
29	0x3750bd27	1.2441807e-05
30	0x1c5b703c	7.260608e-22
31	0x34339740	1.6725699e-07
32	0xa00893e5	-1.1568582e-19
33	0x8c80a8d1	-1.9823125e-31
34	0x991d02c6	-8.11727e-24
35	0x2b2d9d80	6.168052e-13
36	0x1b69a642	1.9327029e-22
37	0xa453e4e7	-4.594722e-17
38	0x0acbaa76	1.9612309e-32
39	0x36fc30e8	7.5158787e-06

layers.4.weight f4 [30, 40]
0	0xae360c10	-4.1392723e-11
1	0x9d04b2fe	-1.7562591e-21
2	0x16a33190	2.6365349e-25
3	0x0927ffc8	2.0222162e-33
4	0x95b8199f	-7.435743e-26
5	0x0fe298f8	2.2344242e-29
6	0xaea02174	-7.2819e-11
7	0x1529d8a6	3.4300184e-26
8	0xac24d958	-2.3426452e-12
9	0x8d8e1f48	-8.758956e-31
10	0x13b16465	4.478008e-27
11	0x92c43b9c	-1.2384034e-27
12	0x12aa0c8c	1.0731601e-27
13	0x9617c734	-1.226054e-25
14	0x97fe240d	-1.6423466e-24
15	0x92a6fee8	-1.0538912e-27
16	0xaf0d0028	-1.2823931e-10
17	0x0ffba5e0	2.4814404e-29
18	0x921ba5d0	-4.9113756e-28
19	0x9c25289a	-5.4646397e-22
20	0x18b53ed4	4.6850844e-24
21	0x8c381594	-1.4181338e-31
22	0x9317bcef	-1.915203e-27
23	0x350485d4	4.936858e-07
24	0x11d132d9	3.3005723e-28
25	0x91bcb75e	-2.9774179e-28
26	0x10c3565a	7.7046984e-29
27	0x13998dd4	3.8762483e-27
28	0x9799e980	-9.946337e-25
29	0x1059f0d0	4.298122e-29
30	0x14a50d5f	1.6666016e-26
31	0x8fb51c74	-1.7858938e-29
32	0x920d33f8	-4.455581e-28
33	0x932a971c	-2.153152e-27
34	0x0f658088	1.1315326e-29
35	0x9536dd36	-3.6929112e-26
36	0x21c9ce96	1.3674973e-18
37	0x176c9248	7.6440346e-25
38	0x1083073f	5.1681554e-29
39	0x935edb02	-2.8128319e-27
40	0x13660894	2.903431e-27
41	0x9a8af338	-5.7468403e-23
42	0x34921360	2.7208716e-07
43	0x8867b5f4	-6.972792e-34
44	0x939f16b5	-4.0159634e-27
45	0x8e1e0ab0	-1.948015e-30
46	0x93730db1	-3.0677662e-27
47	0x118f005c	2.2561643e-28
48	0x0e86f4e4	3.326937e-30
49	0x8c73333c	-1.8735457e-31
50	0x94305e9e	-8.904389e-27
51	0x1300f166	1.627489e-27
52	0x13e8bd3c	5.8751633e-27
53	0x0fa42f12	1.618978e-29
54	0xb2032202	-7.632936e-09
55	0x132afd52	2.1581913e-27
56	0x1300f018	1.6274247e-27
57	0x0dc0a598	1.1872779e-30
58	0xb837f356	-4.3857224e-05
59	0x0dd79229	1.3285585e-30
60	0x93bc36c3	-4.751187e-27
61	0x8f4f606a	-1.0224457e-29
62	0x90d98438	-8.5795123e-29
63	0x121a149c	4.8619235e-28
64	0x142487aa	8.306639e-27
65	0x0e880240	3.3528755e-30
66	0x935c4a56	-2.7804554e-27
67	0x977eba54	-8.2307006e-25
68	0x160e5183	1.1496389e-25
69	0x9100e714	-1.0168626e-28
70	0x0fdab410	2.1565817e-29
71	0x108005c2	5.049597e-29
72	0x976a8aee	-7.578483e-25
73	0x1cb116c0	1.1718758e-21
74	0xadc4255f	-2.2299216e-11
75	0x25ebc47e	4.089915e-16
76	0x94a49034	-1.6616646e-26
77	0x14e29140	2.287746e-26
78	0x1656da71	1.735571e-25
79	0x14e9450c	2.3554222e-26
80	0x902558c0	-3.2608883e-29
81	0x9b8b6d6e	-2.3066338e-22
82	0x94dd3248	-2.233513e-26
83	0x0846a200	5.977389e-34
84	0x930cbed0	-1.7764562e-27
85	0x8f0c3e5a	-6.9145414e-30
86	0x94cb3c07	-2.0521438e-26
87	0x13ab378b	4.322124e-27
88	0x8ec6f5a8	-4.9047327e-30
89	0xb8045a1e	-3.155518e-05
90	0x9383eda7	-3.3303392e-27
91	0x14681040	1.17162115e-26
92	0x94d4269a	-2.1421755e-26
93	0x92aa174c	-1.0734251e-27
94	0x1d4cf08e	2.712354e-21
95	0x955bdb37	-4.4399628e-26
96	0x944f1692	-1.04552805e-26
97	0x8ffb3d48	-2.4774116e-29
98	0x144feb11	1.0497188e-26
99	0x8f2b595a	-8.4481594e-30
100	0x16af87f8	2.8358583e-25
101	0x9c81ff06	-8.602426e-22
102	0x1342e78c	2.4600404e-27
103	0x95138d9d	-2.9798127e-26
104	0x94169656	-7.602713e-27
105	0x10fe979e	1.0041894e-28
106	0x91fe2264	-4.009533e-28
107	0x921fc2c0	-5.04116e-28
108	0x1852945c	2.7216766e-24
109	0x23e789b0	2.5103383e-17
110	0x154ae891	4.0977038e-26
111	0x92b37c4f	-1.1327133e-27
112	0x13cf4ff4	5.2332986e-27
113	0x94e69faf	-2.3287049e-26
114	0x91876526	-2.1361582e-28
115	0x1440ed1e	9.740286e-27
116	0x93219616	-2.0395055e-27
117	0x951107ea	-2.928876e-26
118	0x12ab3ecb	1.0807097e-27
119	0x156ffb98	4.8464138e-26
120	0x14529838	1.06323104e-26
121	0x9a369040	-3.7753242e-23
122	0x978a4dd4	-8.937688e-25
123	0x09beac00	4.5902584e-33
124	0x232d9dc7	9.4117594e-18
125	0x132a9e90	2.1535194e-27
126	0x18217ee8	2.0872834e-24
127	0x2df535e8	2.7877214e-11
128	0x9237468c	-5.7831574e-28
129	0xa30dd9a0	-7.689709e-18
130	0x94a6fe02	-1.6861905e-26
131	0x93b19b54	-4.4834247e-27
132	0x9302f9bc	-1.6531435e-27
133	0x133d168a	2.3866266e-27
134	0x1ae3d0cc	9.422233e-23
135	0x12f2c3c0	1.5320603e-27
136	0x1c73a87a	8.0619706e-22
137	0xac350093	-2.5721966e-12
138	0x13063fc7	1.6944622e-27
139	0x927a0634	-7.8893736e-28
140	0x1a385358	3.8117633e-23
141	0x0daa944b	1.0512759e-30
142	0x95d6db20	-8.677963e-26
143	0x11bb2810	2.9528088e-28
144	0x111230c0	1.1532391e-28
145	0x13733238	3.0695672e-27
146	0xaf43939f	-1.7787592e-10
147	0x94f4d195	-2.472037e-26
148	0x1898d940	3.9510446e-24
149	0x8dfa2ec4	-1.5418698e-30
150	0x95128078	-2.958581e-26
151	0x10b0a933	6.968045e-29
152	0x94cc122f	-2.0605908e-26
153	0x8de67000	-1.4201807e-30
154	0x91074235	-1.0670024e-28
155	0x34ae8d88	3.2513003e-07
156	0x90607680	-4.42675e-29
157	0x241ff110	3.4681817e-17
158	0x92aa2909	-1.0738624e-27
159	0x2467ce74	5.0265013e-17
160	0x112608ec	1.309784e-28
161	0x9a3672d0	-3.7729463e-23
162	0x1a72ab9c	5.0183052e-23
163	0x0c13c2df	1.138311e-31
164	0x140cad7d	7.102408e-27
165	0x12156478	4.7139947e-28
166	0x18ecd58f	6.122021e-24
167	0x12e09cb2	1.4175016e-27
168	0x961d7003	-1.2717704e-25
169	0x0e1aea80	1.9094873e-30
170	0x11353d78	1.4297324e-28
171	0x14676318	1.16820624e-26
172	0xafb57bc2	-3.3011643e-10
173	0x1472f52f	1.2266232e-26
174	0x9b0b7c2c	-1.1537933e-22
175	0x9317fa2a	-1.918222e-27
176	0x1898e96e	3.9526783e-24
177	0x919c1d58	-2.4630545e-28
178	0x141f5f08	8.04619e-27
179	0x1474d0db	1.2360041e-26
180	0x1a8befce	5.787648e-23
181	0x0c4dacd5	1.5844635e-31
182	0x94557e10	-1.0778613e-26
183	0x96363c2c	-1.472083e-25
184	0x2356e446	1.1649302e-17
185	0x13aec983	4.412248e-27
186	0x10ba6684	7.3522015e-29
187	0x355e7282	8.2868075e-07
188	0x9a1080b0	-2.9882455e-23
189	0x0ba91427	6.5126754e-32
190	0x93992cb6	-3.866672e-27
191	0x8dba92fa	-1.1498518e-30
192	0x929b28f2	-9.791969e-28
193	0x92c3f770	-1.2367228e-27
194	0x91a93e70	-2.6701979e-28
195	0x9574bd9e	-4.942499e-26
196	0x9120d420	-1.268714e-28
197	0x178d4fdc	9.132071e-25
198	0x13200028	2.0194916e-27
199	0x142f5b7b	8.8532835e-27
200	0x858c9a0c	-1.3222125e-35
201	0xadd7d46c	-2.4537004e-11
202	0x8e85d2d6	-3.299006e-30
203	0x010753da	2.4855745e-38
204	0x09a7b994	4.0378304e-33
205	0x86ac70fc	-6.4865225e-35
206	0xa420c920	-3.486483e-17
207	0x8b11585c	-2.7992458e-32
208	0x063b1f9c	3.5194014e-35
209	0x84479f5e	-2.3465515e-36
210	0x0590676e	1.3579689e-35
211	0xa2ac3eb0	-4.6687066e-18
212	0x87605426	-1.6876616e-34
213	0x08dc8f52	1.3274463e-33
214	0x0b7f4d8a	4.9169547e-32
215	0x04e50efb	5.38514e-36
216	0x8c249498	-1.2678816e-31
217	0x0516644a	7.071386e-36
218	0x034f419a	6.090714e-37
219	0x05f55a80	2.3072934e-35
220	0x8cd0755c	-3.2118107e-31
221	0x83869278	-7.90944e-37
222	0x89e7cf68	-5.580627e-33
223	0x88f375df	-1.4652742e-33
224	0x054a76b8	9.5197995e-36
225	0x07132fcd	1.1073098e-34
226	0x8b53af86	-4.076917e-32
227	0x06e85a42	8.740132e-35
228	0x8e280cd8	-2.0713783e-30
229	0x0cd2f195	3.250102e-31
230	0x061ee2b2	2.9883047e-35
231	0x86df80ed	-8.4072716e-35
232	0x08cdd878	1.238888e-33
233	0x85b8571e	-1.7335279e-35
234	0xa021542c	-1.366508e-19
235	0x07f85932	3.7367317e-34
236	0x0a3dbeee	9.135929e-33
237	0x8acc8114	-1.9693039e-32
238	0x126033a8	7.074561e-28
239	0x8b8d48bc	-5.4420663e-32
240	0x10a7ec4c	6.623396e-29
241	0x17b0bd50	1.1421523e-24
242	0x1803f078	1.7052759e-24
243	0x8b74a334	-4.711547e-32
244	0x93f9adca	-6.3027806e-27
245	0x11612526	1.7760818e-28
246	0x18698738	3.0182812e-24
247	0x2c9ac4de	4.3988e-12
248	0x0fe4e088	2.2569022e-29
249	0x0cb773b7	2.8265258e-31
250	0x919a7dd5	-2.4374466e-28
251	0x912168c6	-1.2732946e-28
252	0x10db9f25	8.662547e-29
253	0x1a4516ce	4.0757067e-23
254	0x9693ad44	-2.3858477e-25
255	0x0f559254	1.05298926e-29

layers.4.bias f4 [30]
0	0xa3a4b670	-1.7858181e-17
1	0x268c5c2e	9.739437e-16
2	0x29a3e7a0	7.2788347e-14
3	0xa5a39346	-2.837579e-16
4	0x23faca90	2.7190843e-17
5	0x17ec6832	1.5277445e-24
6	0xa2e241e0	-6.132717e-18
7	0x2d2e9e5e	9.9259195e-12
8	0xa6d0b904	-1.4483048e-15
9	0x289da53c	1.750216e-14
10	0x3739ebfe	1.10818055e-05
11	0xa192b457	-9.94108e-19
12	0xa495111a	-6.464742e-17
13	0x1dfbfbdf	6.6699575e-21
14	0x2a13f000	1.313949e-13
15	0xac7c7508	-3.587632e-12
16	0xa3c880af	-2.1738543e-17
17	0x2a95e566	2.6626894e-13
18	0x261ebf0c	5.507618e-16
19	0xa4e7c110	-1.0050734e-16
20	0x2d7ac0ea	1.425369e-11
21	0x25752a80	2.1264762e-16
22	0x25c0325f	3.3340824e-16
23	0xb019536b	-5.577962e-10
24	0x2e651a58	5.209197e-11
25	0x24aa9cde	7.399149e-17
26	0x2e28f3e2	3.841539e-11
27	0x9c0444b0	-4.3763913e-22
28	0xa9f34888	-1.080395e-13
29	0xa4515404	-4.5390815e-17

layers.6.weight f4 [25, 30]
0	0xac5978cc	-3.090461e-12
1	0x9d03fd9e	-1.7468823e-21
2	0x1e2244f6	8.590469e-21
3	0x1f5c53ae	4.665603e-20
4	0x9fc73694	-8.437007e-20
5	0x96aad6a0	-2.7600429e-25
6	0x20239048	1.3854376e-19
7	0x221579ad	2.025768e-18
8	0xad87c5d8	-1.5435583e-11
9	0x2b8d5bce	1.0044133e-12
10	0x9f5c6a90	-4.667496e-20
11	0x9d4f7188	-2.7454916e-21
12	0x9f6487f8	-4.839335e-20
13	0x349f916c	2.9721866e-07
14	0xa4df9d3d	-9.6977206e-17
15	0xa1e9f6f0	-1.5854058e-18
16	0x9485f258	-1.3525156e-26
17	0x245cc5fe	4.78726e-17
18	0xa6028f19	-4.5296744e-16
19	0x1bfdd8e6	4.1995506e-22
20	0x1b434820	1.6153327e-22
21	0x1e2e9174	9.241562e-21
22	0x20ce6970	3.496753e-19
23	0x9d86eff4	-3.571761e-21
24	0x1e7f9eef	1.3532454e-20
25	0x1ca9fbfd	1.1248619e-21
26	0x1edf8038	2.3664073e-20
27	0x161e71b4	1.2799017e-25
28	0xa4956c36	-6.4801766e-17
29	0x20f4d958	4.1479034e-19
30	0x1e4abeb0	1.0733224e-20
31	0x9de13ccb	-5.9619863e-21
32	0x1d166a9f	1.9907457e-21
33	0x2451eb8e	4.5519173e-17
34	0xa38594b8	-1.4482874e-17
35	0xaac2eb0c	-3.462442e-13
36	0x20967c40	2.549321e-19
37	0xa003e400	-1.117157e-19
38	0x9de251b4	-5.990618e-21
39	0xa0024fe0	-1.1037857e-19
40	0x21a1794f	1.0941894e-18
41	0x9d90f23b	-3.8366943e-21
42	0x1df84d75	6.5725142e-21
43	0x19737b7d	1.2587744e-23
44	0xa460e564	-4.876656e-17
45	0x20f33702	4.1202202e-19
46	0x910e19e0	-1.1209798e-28
47	0x222ac9d0	2.3146135e-18
48	0xa10a2c40	-4.6814783e-19
49	0x1ca92214	1.1192291e-21
50	0x9cb64e7a	-1.2064035e-21
51	0xb5e8cbae	-1.7344626e-06
52	0x1c129e5e	4.8512033e-22
53	0xad361cc6	-1.0351891e-11
54	0x22267f72	2.2564664e-18
55	0x1dd6681c	5.6752975e-21
56	0x1f084c1a	2.886207e-20
57	0x97dac4d0	-1.4137602e-24
58	0xa3129028	-7.945202e-18
59	0x20cfe86c	3.5220968e-19
60	0x1f073ac8	2.8635985e-20
61	0x9d0b3968	-1.8426175e-21
62	0xa99310b8	-6.5310116e-14
63	0x1f995922	6.494548e-20
64	0x1f3d649c	4.010553e-20
65	0x169c7d08	2.5282065e-25
66	0x1e6c3388	1.2504392e-20
67	0xaeb7c4ee	-8.356858e-11
68	0x2db0b2ab	2.0088228e-11
69	0x20f2b704	4.1117504e-19
70	0x2c02d023	1.858965e-12
71	0xa6db834c	-1.5231766e-15
72	0x2eeba1e0	1.07153175e-10
73	0x177248e2	7.828641e-25
74	0xa4632c22	-4.926016e-17
75	0xa2a28c1e	-4.4058543e-18
76	0x9741ca90	-6.2617333e-25
77	0xa4e2772f	-9.821378e-17
78	0xa0e60222	-3.8964927e-19
79	0x9ca7dd24	-1.1108296e-21
80	0x1e157fb8	7.914406e-21
81	0x1c929fdf	9.702795e-22
82	0x2d786954	1.4120555e-11
83	0xa3b81cb8	-1.9961483e-17
84	0x301ebd28	5.774887e-10
85	0x1d3c0b98	2.4887587e-21
86	0x34c82de6	3.7286298e-07
87	0xa79a670c	-4.285531e-15
88	0xa1634d60	-7.7012997e-19
89	0x1ee69dc0	2.4417441e-20
90	0x9e9ef23a	-1.6829083e-20
91	0x9cac338a	-1.1395328e-21
92	0x9d99cb1a	-4.0708765e-21
93	0xa045ce87	-1.6754883e-19
94	0x200a0394	1.1690239e-19
95	0x14e67b60	2.3272728e-26
96	0x1e8538a4	1.4105349e-20
97	0x9f57d118	-4.570098e-20
98	0x9accea94	-8.4751404e-23
99	0x20b7f2f3	3.1162176e-19
100	0x1b46c2c6	1.6441111e-22
101	0x1ee1c585	2.3904494e-20
102	0x1e68017f	1.2282287e-20
103	0x96b92e57	-2.9917607e-25
104	0x2202c582	1.7722845e-18
105	0xa223b83a	-2.2188148e-18
106	0x12763df2	7.7700267e-28
107	0xa2e79050	-6.2765472e-18
108	0x211c04d1	5.286123e-19
109	0x1b7b08be	2.0765058e-22
110	0x1c99ad1b	1.0169437e-21
111	0x1a91e5f0	6.034208e-23
112	0x9c3846dc	-6.0972077e-22
113	0x1c8c89f2	9.300081e-22
114	0x9e8d2d02	-1.494757e-20
115	0x9b62b060	-1.8751272e-22
116	0x1e459c48	1.0461411e-20
117	0x171b55c3	5.019145e-25
118	0xaca21a2c	-4.6072226e-12
119	0xa288bbd1	-3.7061732e-18
120	0x9e26e184	-8.834602e-21
121	0x9c51d34b	-6.942539e-22
122	0x1d27f014	2.2226383e-21
123	0x1f9a29a9	6.529046e-20
124	0xa0cfbb9a	-3.5191308e-19
125	0x16bd573c	3.058965e-25
126	0x1fa20f91	6.863542e-20
127	0xa08b7405	-2.362429e-19
128	0x1fa0af14	6.805228e-20
129	0xa05f42f2	-1.8910985e-19
130	0x273d5bd3	2.6278797e-15
131	0x9ba7b210	-2.7742903e-22
132	0x1cc02702	1.2715577e-21
133	0x97fb4530	-1.623796e-24
134	0xa27405dc	-3.3071268e-18
135	0x1fad58ea	7.3415446e-20
136	0x959cd77a	-6.334786e-26
137	0x21616b08	7.637462e-19
138	0x22dcc198	5.9836095e-18
139	0x97824c40	-8.420301e-25
140	0xaeb7de4a	-8.361363e-11
141	0x1c301444	5.825971e-22
142	0x2a27bd76	1.4898312e-13
143	0x9fc04422	-8.142788e-20
144	0x9d93733c	-3.9029726e-21
145	0x9d518550	-2.772984e-21
146	0x9fa81678	-7.118794e-20
147	0x976859fc	-7.507682e-25
148	0x20d34ad0	3.5794297e-19
149	0xa194bddd	-1.0079126e-18
150	0x1d4802a8	2.6471153e-21
151	0x1d58468a	2.862383e-21
152	0x1bc17072	3.2001838e-22
153	0x9ede5551	-2.354045e-20
154	0x1ff1e8e8	1.0245278e-19
155	0x969214f0	-2.3600786e-25
156	0x1e60d2a0	1.19020175e-20
157	0x21b29428	1.2100966e-18
158	0x9bb018a0	-2.913267e-22
159	0x9ee18e60	-2.3881687e-20
160	0x1e0bce90	7.401315e-21
161	0x9d9e8b24	-4.196612e-21
162	0x9d6ad1e0	-3.1078145e-21
163	0x1772d1bc	7.845914e-25
164	0x24a09d95	6.9655893e-17
165	0xa413e150	-3.206639e-17
166	0x14a414f6	1.6568036e-26
167	0xa246c9e0	-2.6940876e-18
168	0xa14218dc	-6.576266e-19
169	0x9cb87b9e	-1.2208053e-21
170	0x22112266	1.9669375e-18
171	0x9d02d120	-1.7313472e-21
172	0x1d8cab66	3.7234913e-21
173	0x1d8831c3	3.6050353e-21
174	0x2197c476	1.0284161e-18
175	0x1a0287a0	2.6992927e-23
176	0x21c05053	1.3031688e-18
177	0x9746584f	-6.408871e-25
178	0x24014660	2.8032026e-17
179	0x2123d16d	5.550372e-19
180	0x9cc889a0	-1.3270465e-21
181	0xb6271d43	-2.4901972e-06
182	0xa199ff8a	-1.0435324e-18
183	0xaab3acd1	-3.1916703e-13
184	0x2033bd18	1.5224456e-19
185	0x9462de9c	-1.1453986e-26
186	0x1f51a088	4.439026e-20
187	0xa2ed351c	-6.429521e-18
188	0x1ebfb09c	2.0295956e-20
189	0x1f84c8ea	5.623656e-20
190	0xa011a12a	-1.2335302e-19
191	0x9b8d7b5c	-2.3406212e-22
192	0x3093eb14	1.0762471e-09
193	0x95a8b4a0	-6.8139636e-26
194	0xa53ffd88	-1.6652509e-16
195	0xa4489e13	-4.350198e-17
196	0xb6330cff	-2.6680643e-06
197	0x26a61a94	1.1525768e-15
198	0x2028adb0	1.4287622e-19
199	0x1b7ba36a	2.0815035e-22
200	0xa5dbe4a4	-3.8145377e-16
201	0xa1c192b8	-1.3117025e-18
202	0x9ec4a286	-2.0819525e-20
203	0x9f96881a	-6.375263e-20
204	0x216d49ee	8.039657e-19
205	0x9f051fd3	-2.819017e-20
206	0x2072482e	2.052208e-19
207	0x173d2650	6.111755e-25
208	0xa51dcaae	-1.368625e-16
209	0x20cdbd8c	3.4853782e-19
210	0x1e8e14c2	1.504342e-20
211	0x9c6a33ac	-7.749089e-22
212	0x9dcbcfbd	-5.394845e-21
213	0xa0dd4f9d	-3.749154e-19
214	0x1d933d50	3.897397e-21
215	0x964d4f4f	-1.6584794e-25
216	0x21242cb8	5.5624546e-19
217	0x1fb7410a	7.761111e-20
218	0xab108fe6	-5.1358776e-13
219	0x9fd50c9d	-9.0229876e-20
220	0x3594d802	1.1089726e-06
221	0x1e62e7b3	1.2012255e-20
222	0x9e03618f	-6.955257e-21
223	0x972411e2	-5.301383e-25
224	0xa474bc10	-5.306836e-17
225	0xa093f596	-2.5065284e-19
226	0x104bdd80	4.0205328e-29
227	0xa367a3c6	-1.25572155e-17
228	0x215bbf30	7.445312e-19
229	0xa293d961	-4.007459e-18
230	0x9c8bd620	-9.253598e-22
231	0x2ecc96fb	9.3036655e-11
232	0x1d802aa5	3.392541e-21
233	0x9f389a5e	-3.9091205e-20
234	0x21721a55	8.202764e-19
235	0x1d8cccce	3.7269455e-21
236	0x9fa35bc4	-6.9185e-20
237	0x16d70b38	3.4742203e-25
238	0x23a86caf	1.8260626e-17
239	0xa22cbee4	-2.3411403e-18
240	0x1e6943af	1.2348914e-20
241	0x9d82e05a	-3.4642688e-21
242	0x9e0ae8e7	-7.353822e-21
243	0x9f22da5e	-3.4485463e-20
244	0x9f30eafc	-3.7463824e-20
245	0x9af20c7a	-1.0010901e-22
246	0x1f11188d	3.0725252e-20
247	0x20cc90ee	3.465485e-19
248	0x9ccb63f4	-1.345925e-21
249	0x1f57ecbe	4.572385e-20
250	0x1b98c9e6	2.5276764e-22
251	0x9e5d9fd3	-1.17326935e-20
252	0x9e968c97	-1.5940014e-20
253	0x1770265c	7.75966e-25
254	0xa31335d8	-7.980288e-18
255	0xa2c93d4c	-5.454606e-18

layers.6.bias f4 [25]
0	0xaaf30802	-4.3171028e-13
1	0xa94f2f84	-4.6004446e-14
2	0xb21f4e9a	-9.27289e-09
3	0x298cb13c	6.247994e-14
4	0x2e27d3da	3.8159566e-11
5	0x2aa6d2c5	2.9633774e-13
6	0x2b91f600	1.0371148e-12
7	0x295a5d59	4.848669e-14
8	0xab31cbab	-6.316568e-13
9	0xaa8b343a	-2.47276e-13
10	0xaaa05244	-2.8478793e-13
11	0xa98d2915	-6.2687845e-14
12	0xac9530c0	-4.240247e-12
13	0xa91a5de6	-3.4276313e-14
14	0x2a9c76f2	2.7793702e-13
15	0x2a45f24c	1.7581178e-13
16	0x2b3dd65e	6.7443783e-13
17	0x29fbe493	1.11862905e-13
18	0x2a5a0f9a	1.9367702e-13
19	0xa97d1e2e	-5.6203462e-14
20	0x2e489a7c	4.5611945e-11
21	0xa971d092	-5.3693656e-14
22	0x2aece466	4.2080505e-13
23	0x2a90d638	2.5728183e-13
24	0x2a48d8a8	1.7838736e-13

layers.8.weight f4 [20, 25]
0	0x9702e3e0	-4.2292884e-25
1	0x8057f9a8	-8.079248e-39
2	0x008beb1c	1.2849475e-38
3	0x8201144e	-9.48325e-38
4	0x82a8b772	-2.4790674e-37
5	0x013602a6	3.343002e-38
6	0x80375d66	-5.084457e-39
7	0x806a985c	-9.789219e-39
8	0xad9fa594	-1.8149739e-11
9	0x81e02f2f	-8.235231e-38
10	0x808253ae	-1.1968633e-38
11	0x892382ac	-1.9681853e-33
12	0x00fb3850	2.307091e-38
13	0x823ebec2	-1.401374e-37
14	0x026502be	1.682505e-37
15	0x003aa880	5.386905e-39
16	0x01d08a8e	7.660595e-38
17	0x801147f6	-1.587018e-39
18	0x80779816	-1.0982982e-38
19	0x0007b62c	7.082e-40
20	0x80010804	-9.4711e-41
21	0xa3e1408b	-2.4421884e-17
22	0x80461c5c	-6.438658e-39
23	0x00da285c	2.0034616e-38
24	0x8832d7e4	-5.3818705e-34
25	0x1e3ba58d	9.933933e-21
26	0x1c82f50d	8.666023e-22
27	0x9f9e625d	-6.707833e-20
28	0xaf34f348	-1.6457335e-10
29	0x1e7fc74b	1.35408004e-20
30	0x1ecfd084	2.2003218e-20
31	0xa0ba01c4	-3.1510794e-19
32	0x1f957d82	6.331159e-20
33	0x1fbe3e6a	8.0571385e-20
34	0x9e2a5088	-9.0163785e-21
35	0x1ca0a306	1.0630052e-21
36	0xb78e017b	-1.6928409e-05
37	0xa22cc27d	-2.3413308e-18
38	0x9d61d57a	-2.9888867e-21
39	0x9e482bf6	-1.0597003e-20
40	0x9f90d8c2	-6.134497e-20
41	0x1f9e0d96	6.693808e-20
42	0x1e3a196c	9.852015e-21
43	0x9e1ca813	-8.293328e-21
44	0x1d28dc5e	2.2348542e-21
45	0x21f291b4	1.6437125e-18
46	0x9db2e54c	-4.7353295e-21
47	0x9e356868	-9.603651e-21
48	0x9fb0acee	-7.482499e-20
49	0x1e842374	1.3990707e-20
50	0x24a85dc7	7.301725e-17
51	0x23b8edc1	2.0050013e-17
52	0x29557118	4.7393594e-14
53	0x25248c58	1.4272283e-16
54	0x368f2322	4.265822e-06
55	0xa4a76e6c	-7.261177e-17
56	0x280e8e78	7.9134765e-15
57	0xa3156a80	-8.0998584e-18
58	0xa66dcf18	-8.2506557e-16
59	0x25794de8	2.1623703e-16
60	0x242bf62c	3.728823e-17
61	0x25151d76	1.2933672e-16
62	0xa8065350	-7.45656e-15
63	0x2511d026	1.2647269e-16
64	0xa2b0da90	-4.7936308e-18
65	0x25139e10	1.2803771e-16
66	0x26d8398b	1.5003608e-15
67	0xa551da00	-1.8201722e-16
68	0xa4206400	-3.4779173e-17
69	0x26a4fce0	1.1448328e-15
70	0x329e8476	1.8453857e-08
71	0x2448c967	4.353868e-17
72	0xa56e419b	-2.0665437e-16
73	0x2cc86da6	5.6965153e-12
74	0xa589aacc	-2.3881448e-16
75	0xa8a7ea7a	-1.8642413e-14
76	0xa6aa26f2	-1.1806676e-15
77	0x27210a28	2.2348744e-15
78	0x2757e502	2.996139e-15
79	0xa52f9f20	-1.5232744e-16
80	0xa4ecf880	-1.0276966e-16
81	0x9cee4df7	-1.5769672e-21
82	0xa82f1d40	-9.720794e-15
83	0x272cfd7d	2.4007211e-15
84	0xa80564b3	-7.404819e-15
85	0xa7e67f08	-6.397555e-15
86	0xa8091737	-7.610062e-15
87	0x15fd50a0	1.0231309e-25
88	0x2802c2e8	7.258713e-15
89	0x27826967	3.6196526e-15
90	0x9fd33fd7	-8.946759e-20
91	0x272f7749	2.4350793e-15
92	0xa8bdda9b	-2.107802e-14
93	0xa7eebc8e	-6.62627e-15
94	0x289f2dfc	1.7672489e-14
95	0x1bec5195	3.9095646e-22
96	0xa7ed64c6	-6.5889973e-15
97	0x2680449e	8.900383e-16
98	0xa82721f1	-9.277722e-15
99	0x287b5373	1.3951394e-14
100	0x949853fb	-1.5381202e-26
101	0x938830f5	-3.4379502e-27
102	0x942794e0	-8.460706e-27
103	0x132c269c	2.1728488e-27
104	0x1344395d	2.476696e-27
105	0x958f7a9e	-5.7950696e-26
106	0x184c8a39	2.6436167e-24
107	0x93ece04a	-5.979594e-27
108	0x948e9320	-1.4396366e-26
109	0x9419271c	-7.732239e-27
110	0x9257a4b0	-6.804503e-28
111	0x10d109a0	8.2450794e-29
112	0x9608134e	-1.0992084e-25
113	0x933513c5	-2.2855159e-27
114	0x903c7500	-3.7166596e-29
115	0x147cd08a	1.2763876e-26
116	0x94fd35e0	-2.5567721e-26
117	0x13dd2e49	5.5833884e-27
118	0x120dcc20	4.474336e-28
119	0x92006a24	-4.0520507e-28
120	0x968e27c8	-2.2966443e-25
121	0x934ce1ba	-2.5859712e-27
122	0x13b79e37	4.6351706e-27
123	0x148682ea	1.3582179e-26
124	0x10c61100	7.812342e-29
125	0x258d81ae	2.4547475e-16
126	0x1319b096	1.9398379e-27
127	0x92849a17	-8.368357e-28
128	0x8f867ac1	-1.3260703e-29
129	0x105a564c	4.30594e-29
130	0x1183064e	2.0672041e-28
131	0x14df3642	2.2538647e-26
132	0x908ea7e5	-5.6267807e-29
133	0x9144b8e0	-1.5518643e-28
134	0x115cff9c	1.7433706e-28
135	0x10114e27	2.8656414e-29
136	0x906dfbb8	-4.6933926e-29
137	0x9282f064	-8.263414e-28
138	0x10f621cf	9.708198e-29
139	0x117bb1b8	1.9855173e-28
140	0x0fe5a1a4	2.2643405e-29
141	0x90992134	-6.0399017e-29
142	0x8ff418c1	-2.4069792e-29
143	0x11511bbf	1.6495743e-28
144	0x1272d741	7.6627057e-28
145	0x12193d46	4.8353813e-28
146	0x8fa1c6b5	-1.5952365e-29
147	0x1133657d	1.4151884e-28
148	0x90b55c06	-7.1533696e-29
149	0x1164f7b0	1.8062353e-28
150	0x2292242d	3.961168e-18
151	0xa3361332	-9.8703045e-18
152	0x23df5de6	2.4217476e-17
153	0x22a08c40	4.3516582e-18
154	0x22ab3056	4.640082e-18
155	0x22d151b6	5.673608e-18
156	0xa56fe658	-2.0807989e-16
157	0x9f356400	-3.841096e-20
158	0x23606ad7	1.21656885e-17
159	0xa2c31660	-5.2878546e-18
160	0x2300ffa6	6.9930296e-18
161	0x22862627	3.636117e-18
162	0xa4287f3a	-3.6536958e-17
163	0x1fc0cff7	8.165921e-20
164	0x223b5d56	2.5392637e-18
165	0x242bdd9c	3.7267425e-17
166	0xa462ce3a	-4.918062e-17
167	0x211bb637	5.27572e-19
168	0x24dad0ea	9.4896344e-17
169	0xa0a21673	-2.7458723e-19
170	0x26174c66	5.249219e-16
171	0x2006d13c	1.1419471e-19
172	0x229c4fea	4.2368497e-18
173	0x235466b3	1.15142904e-17
174	0xa3474eec	-1.0804524e-17
175	0x2a75ba26	2.1824954e-13
176	0x38265e46	3.9665283e-05
177	0x9efdd4f8	-2.6875499e-20
178	0x1e3d0920	1.0007464e-20
179	0x1eb782dc	1.9430001e-20
180	0x1d83f25b	3.4926e-21
181	0xa34ced32	-1.110909e-17
182	0x203d5ad8	1.603898e-19
183	0xa1e920ba	-1.5797357e-18
184	0x1de5d1a5	6.0832563e-21
185	0x9fbd1de0	-8.009404e-20
186	0x1e2fda26	9.309535e-21
187	0x213b197d	6.33918e-19
188	0x9dafc6be	-4.652761e-21
189	0x9f4fff31	-4.4045044e-20
190	0xa178151b	-8.40536e-19
191	0x21359c80	6.153231e-19
192	0x1fd12c62	8.858837e-20
193	0x202b61d6	1.4516635e-19
194	0x1f46c0ea	4.2087706e-20
195	0x25114500	1.2600123e-16
196	0x9e904b64	-1.5277774e-20
197	0x2028d240	1.429972e-19
198	0x22b8e647	5.0117116e-18
199	0x2e231b3e	3.7086105e-11
200	0xa645d722	-6.8639664e-16
201	0xa37794d0	-1.3421409e-17
202	0xa6b4e488	-1.2551953e-15
203	0x21d7a778	1.4613295e-18
204	0x260b92b6	4.8424143e-16
205	0x23aef626	1.8969366e-17
206	0xa6870ff8	-9.371835e-16
207	0xa625d97b	-5.7540616e-16
208	0xa501c67a	-1.1256213e-16
209	0x242cde2d	3.7484745e-17
210	0xae6139b4	-5.1210328e-11
211	0xabc43968	-1.3942571e-12
212	0xa615966d	-5.1898625e-16
213	0xa33480d8	-9.785103e-18
214	0xa5c6e998	-3.4505814e-16
215	0x23489d00	1.0875268e-17
216	0x25c25c36	3.371612e-16
217	0x2452ac94	4.568267e-17
218	0xa48aec4c	-6.024826e-17
219	0x2456fb97	4.6616958e-17
220	0xa8e8f2e2	-2.5862508e-14
221	0x23683c28	1.2589484e-17
222	0x258c0ea6	2.4296055e-16
223	0x24017799	2.807372e-17
224	0xa4052a4e	-2.887561e-17
225	0x27b10192	4.912907e-15
226	0xa6e747c8	-1.6048301e-15
227	0x377a5134	1.4920068e-05
228	0x272e8587	2.4219736e-15
229	0xaa825d6e	-2.315747e-13
230	0xa8e7187a	-2.5656767e-14
231	0xa7b97880	-5.147846e-15
232	0xaa5e6d78	-1.975554e-13
233	0x289ae8ad	1.7198342e-14
234	0xa7c52220	-5.4715482e-15
235	0xa8407ab4	-1.0684748e-14
236	0xa7c74127	-5.5304234e-15
237	0x29899961	6.110629e-14
238	0xa8a46aa6	-1.8253909e-14
239	0xa700770a	-1.78281e-15
240	0xa801817f	-7.1890185e-15
241	0x29a27458	7.2144276e-14
242	0xa7b5d4c0	-5.0468256e-15
243	0x2d65e19c	1.3067238e-11
244	0x2af77dc7	4.396329e-13
245	0x2c2d0ba8	2.459125e-12
246	0xa5ca4f91	-3.509533e-16
247	0xa71759fc	-2.100424e-15
248	0x28117bbc	8.0759475e-15
249	0x2a04fc76	1.1811545e-13
250	0x077a9e38	1.8854406e-34
251	0x1e8f3520	1.5162686e-20
252	0x020c8a28	1.0325224e-37
253	0x8715a954	-1.1259275e-34
254	0x83920702	-8.582718e-37
255	0x8365512b	-6.739023e-37

layers.8.bias f4 [20]
0	0xafc2fec0	-3.5469405e-10
1	0xaed6a789	-9.7613535e-11
2	0xb45c52ef	-2.0519268e-07
3	0xbb020536	-0.0019839532
4	0xa4532089	-4.578089e-17
5	0xa06e8f8a	-2.0206877e-19
6	0xb1190d0d	-2.2271849e-09
7	0xadc9ca06	-2.294077e-11
8	0xb5df397f	-1.6631528e-06
9	0xb9608ede	-0.00021415527
10	0xb86ed951	-5.6946014e-05
11	0xb1207ba9	-2.3353357e-09
12	0xb62e285c	-2.5951513e-06
13	0xb0762121	-8.954136e-10
14	0xa8957549	-1.6593187e-14
15	0xb75223de	-1.2525326e-05
16	0xb35c1629	-5.1242896e-08
17	0xb1a2876e	-4.730217e-09
18	0xb505ebf8	-4.988974e-07
19	0xba1e55a4	-0.0006039983

layers.10.weight f4 [10, 20]
0	0x8028f574	-3.761472e-39
1	0xade9000b	-2.6489052e-11
2	0xb132a441	-2.5995777e-09
3	0xb4a2f28c	-3.0351327e-07
4	0xa20ab8ce	-1.8800322e-18
5	0x9e2265ae	-8.5972355e-21
6	0x3089c9f8	1.0025465e-09
7	0x2d79c47d	1.41976405e-11
8	0xb49a2ea6	-2.8718677e-07
9	0xb873a951	-5.8093403e-05
10	0x2d877ccf	1.540315e-11
11	0x3174647f	3.5563799e-09
12	0xb5283243	-6.265802e-07
13	0xaf167f9a	-1.3687754e-10
14	0xa89d8a08	-1.7490363e-14
15	0xb553994a	-7.882669e-07
16	0x322b3d84	9.967497e-09
17	0x308ac165	1.0095788e-09
18	0xb55ad344	-8.151876e-07
19	0xbb873fb5	-0.0041274675
20	0x0000a3ba	5.8734e-41
21	0xadb646b6	-2.0722406e-11
22	0x34c5cbef	3.684249e-07
23	0x2fce9581	3.757741e-10
24	0x23f6c15f	2.675327e-17
25	0x1ea4d99b	1.7454175e-20
26	0x2fd4e36c	3.8724168e-10
27	0xad92e2de	-1.6699028e-11
28	0x35ab06a3	1.2742424e-06
29	0x394dd618	0.0001963008
30	0x9e63c4cd	-1.2057977e-20
31	0x31454cfc	2.8711034e-09
32	0xb51b82ea	-5.7932505e-07
33	0x3047ae20	7.2643225e-10
34	0xa8a7db03	-1.8635706e-14
35	0xb5b2dd7d	-1.3326495e-06
36	0x32a8e5b2	1.9662227e-08
37	0xb1324bab	-2.5945421e-09
38	0x34199668	1.4303953e-07
39	0xbbae5460	-0.005320117
40	0x00000741	2.602e-42
41	0xae134a7f	-3.3490096e-11
42	0xb414b259	-1.3848457e-07
43	0xb3e202b2	-1.05244354e-07
44	0x2295965f	4.0545743e-18
45	0x1e09755a	7.276987e-21
46	0x2f0f00f8	1.3006118e-10
47	0x2cd57dae	6.0677774e-12
48	0xb3fc8a34	-1.17598034e-07
49	0xb852354a	-5.011753e-05
50	0xac49be41	-2.866943e-12
51	0x317f0793	3.711169e-09
52	0x34c79ae0	3.7179325e-07
53	0xafd14254	-3.8064008e-10
54	0x27613438	3.125333e-15
55	0xb5eeed61	-1.7801468e-06
56	0xb180fb65	-3.7538705e-09
57	0x3097ccfd	1.1044957e-09
58	0x35452690	7.3444335e-07
59	0xbaefed11	-0.0018304904
60	0x0002677a	2.20791e-40
61	0x2e90913c	6.574161e-11
62	0xb408b041	-1.2730108e-07
63	0x32ea9c3f	2.7312238e-08
64	0x22f8d3a5	6.744462e-18
65	0x9f7d5307	-5.3643513e-20
66	0x30334ab1	6.5225964e-10
67	0x2c90fda0	4.120884e-12
68	0xb40b41d8	-1.2969338e-07
69	0xb89073bf	-6.8880145e-05
70	0xa6ca7cdc	-1.4050409e-15
71	0xb022e7f7	-5.92649e-10
72	0xb4e702ab	-4.3029044e-07
73	0xaee8bbb5	-1.0583482e-10
74	0x290a1472	3.065989e-14
75	0x3678f4e0	3.7097416e-06
76	0xb15e91c4	-3.238811e-09
77	0x30f1f408	1.7604416e-09
78	0x3491a3da	2.7127572e-07
79	0x3c0aa9e2	0.008463355
80	0x00006003	3.4443e-41
81	0x2c9990ca	4.3645964e-12
82	0xb39110c9	-6.755142e-08
83	0x36079170	2.0201223e-06
84	0x22e51212	6.2089707e-18
85	0x1eab2b0d	1.8123135e-20
86	0xb0f7147e	-1.797744e-09
87	0xacf0cb88	-6.8438068e-12
88	0xb45489f4	-1.9794226e-07
89	0xb939cc5d	-0.00017719106
90	0x299d7a1d	6.993384e-14
91	0x3105278a	1.9376523e-09
92	0xb4f18cb5	-4.4992126e-07
93	0xaccd40d8	-5.8336495e-12
94	0x2816fa37	8.380929e-15
95	0xb620cc41	-2.396075e-06
96	0x316eedd4	3.4768748e-09
97	0x3105dacd	1.947842e-09
98	0xb4828f7d	-2.4318788e-07
99	0x3b9eb273	0.00484305
100	0x000055c7	3.0771e-41
101	0xae356420	-4.1243564e-11
102	0xb49cfac1	-2.9239712e-07
103	0xb4007019	-1.196171e-07
104	0xa1adca7d	-1.1776534e-18
105	0x1ee16358	2.386389e-20
106	0xb0c458da	-1.428613e-09
107	0x2cd4a35b	6.0435385e-12
108	0x34cf69a6	3.8633624e-07
109	0xb901edbb	-0.0001239096
110	0xa7fdf684	-7.048888e-15
111	0x2f0e6148	1.2949386e-10
112	0x35707bb2	8.958697e-07
113	0xae403bfa	-4.3709016e-11
114	0x26745f90	8.4784017e-16
115	0x35e515b8	1.706815e-06
116	0x3285a6c6	1.5559078e-08
117	0x309bd29b	1.1337592e-09
118	0xb4bb73ec	-3.4915809e-07
119	0xba3234a3	-0.00067980046
120	0x8008250b	-7.47972e-40
121	0xad73de74	-1.3862345e-11
122	0x348d4b12	2.6317917e-07
123	0xb338e2f0	-4.3047237e-08
124	0xa3bfe6f3	-2.0806072e-17
125	0x1e928422	1.5513e-20
126	0xb09ce826	-1.1416474e-09
127	0xac8fe2bd	-4.0894775e-12
128	0x351996e2	5.7216505e-07
129	0x3914d90e	0.00014195239
130	0xa2d81e3b	-5.8578925e-18
131	0x303c4947	6.8498135e-10
132	0xb3ae23f4	-8.109046e-08
133	0x30aeea88	1.2726824e-09
134	0xa843de75	-1.0872912e-14
135	0xb60ffe2d	-2.145661e-06
136	0xb0d97de8	-1.5824613e-09
137	0x311f5a57	2.3188897e-09
138	0xb39a0e92	-7.173834e-08
139	0xbbab3086	-0.0052242903
140	0x00064a7b	5.77732e-40
141	0x2e7a1e3f	5.6870283e-11
142	0xb4a86263	-3.1364024e-07
143	0x35157f08	5.569168e-07
144	0x23961fa1	1.6276428e-17
145	0x9e84a4ba	-1.4044173e-20
146	0x2f85f126	2.4363905e-10
147	0x2da0e466	1.8291323e-11
148	0xb538631a	-6.8689553e-07
149	0xb921bb8a	-0.0001542402
150	0xaf81c7d9	-2.3606964e-10
151	0x319a6228	4.493149e-09
152	0xb51a5c6c	-5.750396e-07
153	0xafc6190a	-3.6033782e-10
154	0x26e187e0	1.564934e-15
155	0x34c7a164	3.7184066e-07
156	0x31d24d11	6.120566e-09
157	0xb119f772	-2.2405087e-09
158	0xb4de9b2d	-4.1463628e-07
159	0x3c56f5d2	0.013120132
160	0x0000a8d1	6.056e-41
161	0x2e6d586c	5.3966095e-11
162	0xb47b1bfc	-2.3386377e-07
163	0x2ed1f850	9.548329e-11
164	0x222e91c4	2.3658565e-18
165	0x9ff955c6	-1.055975e-19
166	0xb07495cb	-8.897955e-10
167	0xad3a2ba7	-1.0582569e-11
168	0xb3d9499e	-1.0118241e-07
169	0x35a71a84	1.2450187e-06
170	0x2c20f072	2.2870842e-12
171	0xb010f2a5	-5.2731713e-10
172	0x3309b88e	3.206565e-08
173	0x2e56b34c	4.8817214e-11
174	0xa8b32574	-1.9889235e-14
175	0x37292b1b	1.0083221e-05
176	0x31cace2a	5.902412e-09
177	0xb119279d	-2.2286948e-09
178	0x3408dc90	1.2746227e-07
179	0xbb0f9d5e	-0.0021913867
180	0x0006e9c4	6.34872e-40
181	0xae0158ac	-2.940996e-11
182	0xb49b20a5	-2.8894752e-07
183	0x32f80e2b	2.8877443e-08
184	0x23349bac	9.790784e-18
185	0x1e7ddeed	1.34398084e-20
186	0xaf2c16a5	-1.5651354e-10
187	0xad84fee6	-1.511986e-11
188	0xb5078e4c	-5.049849e-07
189	0x391caa33	0.00014940723
190	0xa3879baa	-1.4702656e-17
191	0x31718856	3.5147614e-09
192	0xb4fd7ec4	-4.7217156e-07
193	0xb0319194	-6.4599104e-10
194	0x28c1046d	2.1429224e-14
195	0xb5cf6167	-1.545105e-06
196	0x3280f212	1.5011242e-08
197	0xb001f802	-4.7282367e-10
198	0xb5497988	-7.5055186e-07
199	0xbaeb298a	-0.0017941457

layers.10.bias f4 [10]
0	0x3b1d8cc8	0.002404021
1	0xbb18543d	-0.002324357
2	0x3bea336d	0.0071472437
3	0xbb605447	-0.003422992
4	0x3bd8369c	0.006598307
5	0xbac9e8f3	-0.0015404507
6	0x3a8c2e24	0.0010694903
7	0xbaaf3f51	-0.001337031
8	0xbaa7af1e	-0.0012793278
9	0xbbe7dba7	-0.007075745
